…
+Loaded dataset contains  1000 samples
+23/02/2021 11:24:39 AM : INFO - Using pretrained UNITER base model ./model_checkpoints/uniter-base.pt
+23/02/2021 11:24:39 AM : INFO - Model config {
+  "attention_probs_dropout_prob": 0.1,
+  "hidden_act": "gelu",
+  "hidden_dropout_prob": 0.1,
+  "hidden_size": 768,
+  "initializer_range": 0.02,
+  "intermediate_size": 3072,
+  "max_position_embeddings": 512,
+  "num_attention_heads": 12,
+  "num_hidden_layers": 12,
+  "type_vocab_size": 2,
+  "vocab_size": 28996
+}
+
+MemeUniter
+MemeUniter(
+  (uniter_model): UniterModel(
+    (embeddings): UniterTextEmbeddings(
+      (word_embeddings): Embedding(28996, 768, padding_idx=0)
+      (position_embeddings): Embedding(512, 768)
+      (token_type_embeddings): Embedding(2, 768)
+      (LayerNorm): FusedLayerNorm(torch.Size([768]), eps=1e-12, elementwise_affine=True)
+      (dropout): Dropout(p=0.1, inplace=False)
+    )
+    (img_embeddings): UniterImageEmbeddings(
+      (img_linear): Linear(in_features=2048, out_features=768, bias=True)
+      (img_layer_norm): FusedLayerNorm(torch.Size([768]), eps=1e-12, elementwise_affine=True)
+      (pos_layer_norm): FusedLayerNorm(torch.Size([768]), eps=1e-12, elementwise_affine=True)
+      (pos_linear): Linear(in_features=7, out_features=768, bias=True)
+      (mask_embedding): Embedding(2, 2048, padding_idx=0)
+      (LayerNorm): FusedLayerNorm(torch.Size([768]), eps=1e-12, elementwise_affine=True)
+      (dropout): Dropout(p=0.1, inplace=False)
+    )
+    (encoder): UniterEncoder(
+      (layer): ModuleList(
+        (0): BertLayer(
+          (attention): BertAttention(
+            (self): BertSelfAttention(
+              (query): Linear(in_features=768, out_features=768, bias=True)
+              (key): Linear(in_features=768, out_features=768, bias=True)
+              (value): Linear(in_features=768, out_features=768, bias=True)
+              (dropout): Dropout(p=0.1, inplace=False)
+            )
+            (output): BertSelfOutput(
+              (dense): Linear(in_features=768, out_features=768, bias=True)
+              (LayerNorm): FusedLayerNorm(torch.Size([768]), eps=1e-12, elementwise_affine=True)
+              (dropout): Dropout(p=0.1, inplace=False)
+            )
+          )
+          (intermediate): BertIntermediate(
+            (dense): Linear(in_features=768, out_features=3072, bias=True)
+          )
+          (output): BertOutput(
+            (dense): Linear(in_features=3072, out_features=768, bias=True)
+            (LayerNorm): FusedLayerNorm(torch.Size([768]), eps=1e-12, elementwise_affine=True)
+            (dropout): Dropout(p=0.1, inplace=False)
+          )
+        )
+        (1): BertLayer(
+          (attention): BertAttention(
+            (self): BertSelfAttention(
+              (query): Linear(in_features=768, out_features=768, bias=True)
+              (key): Linear(in_features=768, out_features=768, bias=True)
+              (value): Linear(in_features=768, out_features=768, bias=True)
+              (dropout): Dropout(p=0.1, inplace=False)
+            )
+            (output): BertSelfOutput(
+              (dense): Linear(in_features=768, out_features=768, bias=True)
+              (LayerNorm): FusedLayerNorm(torch.Size([768]), eps=1e-12, elementwise_affine=True)
+              (dropout): Dropout(p=0.1, inplace=False)
+            )
+          )
+          (intermediate): BertIntermediate(
+            (dense): Linear(in_features=768, out_features=3072, bias=True)
+          )
+          (output): BertOutput(
+            (dense): Linear(in_features=3072, out_features=768, bias=True)
+            (LayerNorm): FusedLayerNorm(torch.Size([768]), eps=1e-12, elementwise_affine=True)
+            (dropout): Dropout(p=0.1, inplace=False)
+          )
+        )
+        (2): BertLayer(
+          (attention): BertAttention(
+            (self): BertSelfAttention(
+              (query): Linear(in_features=768, out_features=768, bias=True)
+              (key): Linear(in_features=768, out_features=768, bias=True)
+              (value): Linear(in_features=768, out_features=768, bias=True)
+              (dropout): Dropout(p=0.1, inplace=False)
+            )
+            (output): BertSelfOutput(
+              (dense): Linear(in_features=768, out_features=768, bias=True)
+              (LayerNorm): FusedLayerNorm(torch.Size([768]), eps=1e-12, elementwise_affine=True)
+              (dropout): Dropout(p=0.1, inplace=False)
+            )
+          )
+          (intermediate): BertIntermediate(
+            (dense): Linear(in_features=768, out_features=3072, bias=True)
+          )
+          (output): BertOutput(
+            (dense): Linear(in_features=3072, out_features=768, bias=True)
+            (LayerNorm): FusedLayerNorm(torch.Size([768]), eps=1e-12, elementwise_affine=True)
+            (dropout): Dropout(p=0.1, inplace=False)
+          )
+        )
+        (3): BertLayer(
+          (attention): BertAttention(
+            (self): BertSelfAttention(
+              (query): Linear(in_features=768, out_features=768, bias=True)
+              (key): Linear(in_features=768, out_features=768, bias=True)
+              (value): Linear(in_features=768, out_features=768, bias=True)
+              (dropout): Dropout(p=0.1, inplace=False)
+            )
+            (output): BertSelfOutput(
+              (dense): Linear(in_features=768, out_features=768, bias=True)
+              (LayerNorm): FusedLayerNorm(torch.Size([768]), eps=1e-12, elementwise_affine=True)
+              (dropout): Dropout(p=0.1, inplace=False)
+            )
+          )
+          (intermediate): BertIntermediate(
+            (dense): Linear(in_features=768, out_features=3072, bias=True)
+          )
+          (output): BertOutput(
+            (dense): Linear(in_features=3072, out_features=768, bias=True)
+            (LayerNorm): FusedLayerNorm(torch.Size([768]), eps=1e-12, elementwise_affine=True)
+            (dropout): Dropout(p=0.1, inplace=False)
+          )
+        )
+        (4): BertLayer(
+          (attention): BertAttention(
+            (self): BertSelfAttention(
+              (query): Linear(in_features=768, out_features=768, bias=True)
+              (key): Linear(in_features=768, out_features=768, bias=True)
+              (value): Linear(in_features=768, out_features=768, bias=True)
+              (dropout): Dropout(p=0.1, inplace=False)
+            )
+            (output): BertSelfOutput(
+              (dense): Linear(in_features=768, out_features=768, bias=True)
+              (LayerNorm): FusedLayerNorm(torch.Size([768]), eps=1e-12, elementwise_affine=True)
+              (dropout): Dropout(p=0.1, inplace=False)
+            )
+          )
+          (intermediate): BertIntermediate(
+            (dense): Linear(in_features=768, out_features=3072, bias=True)
+          )
+          (output): BertOutput(
+            (dense): Linear(in_features=3072, out_features=768, bias=True)
+            (LayerNorm): FusedLayerNorm(torch.Size([768]), eps=1e-12, elementwise_affine=True)
+            (dropout): Dropout(p=0.1, inplace=False)
+          )
+        )
+        (5): BertLayer(
+          (attention): BertAttention(
+            (self): BertSelfAttention(
+              (query): Linear(in_features=768, out_features=768, bias=True)
+              (key): Linear(in_features=768, out_features=768, bias=True)
+              (value): Linear(in_features=768, out_features=768, bias=True)
+              (dropout): Dropout(p=0.1, inplace=False)
+            )
+            (output): BertSelfOutput(
+              (dense): Linear(in_features=768, out_features=768, bias=True)
+              (LayerNorm): FusedLayerNorm(torch.Size([768]), eps=1e-12, elementwise_affine=True)
+              (dropout): Dropout(p=0.1, inplace=False)
+            )
+          )
+          (intermediate): BertIntermediate(
+            (dense): Linear(in_features=768, out_features=3072, bias=True)
+          )
+          (output): BertOutput(
+            (dense): Linear(in_features=3072, out_features=768, bias=True)
+            (LayerNorm): FusedLayerNorm(torch.Size([768]), eps=1e-12, elementwise_affine=True)
+            (dropout): Dropout(p=0.1, inplace=False)
+          )
+        )
+        (6): BertLayer(
+          (attention): BertAttention(
+            (self): BertSelfAttention(
+              (query): Linear(in_features=768, out_features=768, bias=True)
+              (key): Linear(in_features=768, out_features=768, bias=True)
+              (value): Linear(in_features=768, out_features=768, bias=True)
+              (dropout): Dropout(p=0.1, inplace=False)
+            )
+            (output): BertSelfOutput(
+              (dense): Linear(in_features=768, out_features=768, bias=True)
+              (LayerNorm): FusedLayerNorm(torch.Size([768]), eps=1e-12, elementwise_affine=True)
+              (dropout): Dropout(p=0.1, inplace=False)
+            )
+          )
+          (intermediate): BertIntermediate(
+            (dense): Linear(in_features=768, out_features=3072, bias=True)
+          )
+          (output): BertOutput(
+            (dense): Linear(in_features=3072, out_features=768, bias=True)
+            (LayerNorm): FusedLayerNorm(torch.Size([768]), eps=1e-12, elementwise_affine=True)
+            (dropout): Dropout(p=0.1, inplace=False)
+          )
+        )
+        (7): BertLayer(
+          (attention): BertAttention(
+            (self): BertSelfAttention(
+              (query): Linear(in_features=768, out_features=768, bias=True)
+              (key): Linear(in_features=768, out_features=768, bias=True)
+              (value): Linear(in_features=768, out_features=768, bias=True)
+              (dropout): Dropout(p=0.1, inplace=False)
+            )
+            (output): BertSelfOutput(
+              (dense): Linear(in_features=768, out_features=768, bias=True)
+              (LayerNorm): FusedLayerNorm(torch.Size([768]), eps=1e-12, elementwise_affine=True)
+              (dropout): Dropout(p=0.1, inplace=False)
+            )
+          )
+          (intermediate): BertIntermediate(
+            (dense): Linear(in_features=768, out_features=3072, bias=True)
+          )
+          (output): BertOutput(
+            (dense): Linear(in_features=3072, out_features=768, bias=True)
+            (LayerNorm): FusedLayerNorm(torch.Size([768]), eps=1e-12, elementwise_affine=True)
+            (dropout): Dropout(p=0.1, inplace=False)
+          )
+        )
+        (8): BertLayer(
+          (attention): BertAttention(
+            (self): BertSelfAttention(
+              (query): Linear(in_features=768, out_features=768, bias=True)
+              (key): Linear(in_features=768, out_features=768, bias=True)
+              (value): Linear(in_features=768, out_features=768, bias=True)
+              (dropout): Dropout(p=0.1, inplace=False)
+            )
+            (output): BertSelfOutput(
+              (dense): Linear(in_features=768, out_features=768, bias=True)
+              (LayerNorm): FusedLayerNorm(torch.Size([768]), eps=1e-12, elementwise_affine=True)
+              (dropout): Dropout(p=0.1, inplace=False)
+            )
+          )
+          (intermediate): BertIntermediate(
+            (dense): Linear(in_features=768, out_features=3072, bias=True)
+          )
+          (output): BertOutput(
+            (dense): Linear(in_features=3072, out_features=768, bias=True)
+            (LayerNorm): FusedLayerNorm(torch.Size([768]), eps=1e-12, elementwise_affine=True)
+            (dropout): Dropout(p=0.1, inplace=False)
+          )
+        )
+        (9): BertLayer(
+          (attention): BertAttention(
+            (self): BertSelfAttention(
+              (query): Linear(in_features=768, out_features=768, bias=True)
+              (key): Linear(in_features=768, out_features=768, bias=True)
+              (value): Linear(in_features=768, out_features=768, bias=True)
+              (dropout): Dropout(p=0.1, inplace=False)
+            )
+            (output): BertSelfOutput(
+              (dense): Linear(in_features=768, out_features=768, bias=True)
+              (LayerNorm): FusedLayerNorm(torch.Size([768]), eps=1e-12, elementwise_affine=True)
+              (dropout): Dropout(p=0.1, inplace=False)
+            )
+          )
+          (intermediate): BertIntermediate(
+            (dense): Linear(in_features=768, out_features=3072, bias=True)
+          )
+          (output): BertOutput(
+            (dense): Linear(in_features=3072, out_features=768, bias=True)
+            (LayerNorm): FusedLayerNorm(torch.Size([768]), eps=1e-12, elementwise_affine=True)
+            (dropout): Dropout(p=0.1, inplace=False)
+          )
+        )
+        (10): BertLayer(
+          (attention): BertAttention(
+            (self): BertSelfAttention(
+              (query): Linear(in_features=768, out_features=768, bias=True)
+              (key): Linear(in_features=768, out_features=768, bias=True)
+              (value): Linear(in_features=768, out_features=768, bias=True)
+              (dropout): Dropout(p=0.1, inplace=False)
+            )
+            (output): BertSelfOutput(
+              (dense): Linear(in_features=768, out_features=768, bias=True)
+              (LayerNorm): FusedLayerNorm(torch.Size([768]), eps=1e-12, elementwise_affine=True)
+              (dropout): Dropout(p=0.1, inplace=False)
+            )
+          )
+          (intermediate): BertIntermediate(
+            (dense): Linear(in_features=768, out_features=3072, bias=True)
+          )
+          (output): BertOutput(
+            (dense): Linear(in_features=3072, out_features=768, bias=True)
+            (LayerNorm): FusedLayerNorm(torch.Size([768]), eps=1e-12, elementwise_affine=True)
+            (dropout): Dropout(p=0.1, inplace=False)
+          )
+        )
+        (11): BertLayer(
+          (attention): BertAttention(
+            (self): BertSelfAttention(
+              (query): Linear(in_features=768, out_features=768, bias=True)
+              (key): Linear(in_features=768, out_features=768, bias=True)
+              (value): Linear(in_features=768, out_features=768, bias=True)
+              (dropout): Dropout(p=0.1, inplace=False)
+            )
+            (output): BertSelfOutput(
+              (dense): Linear(in_features=768, out_features=768, bias=True)
+              (LayerNorm): FusedLayerNorm(torch.Size([768]), eps=1e-12, elementwise_affine=True)
+              (dropout): Dropout(p=0.1, inplace=False)
+            )
+          )
+          (intermediate): BertIntermediate(
+            (dense): Linear(in_features=768, out_features=3072, bias=True)
+          )
+          (output): BertOutput(
+            (dense): Linear(in_features=3072, out_features=768, bias=True)
+            (LayerNorm): FusedLayerNorm(torch.Size([768]), eps=1e-12, elementwise_affine=True)
+            (dropout): Dropout(p=0.1, inplace=False)
+          )
+        )
+      )
+    )
+    (pooler): BertPooler(
+      (dense): Linear(in_features=768, out_features=768, bias=True)
+      (activation): Tanh()
+    )
+  )
+  (linear_1): Linear(in_features=768, out_features=384, bias=True)
+  (activation_1): ReLU()
+  (linear_2): Linear(in_features=384, out_features=1, bias=True)
+)
+
+
+====================================================================================================
+					 Training Network
+====================================================================================================
+
+Beginning training at:  2021-02-23 11:24:42.986757 
+
+Traceback (most recent call last):
+  File "train_uniter.py", line 648, in <module>
…
